notebooks/data/model_float32.pth (torch, 409216 bytes, 4 tensors)

fc1.weight f4 [128, 784]
00000000: f91d a9ba e2e6 2c3d fa01 833d 9209 953c
00000010: fa29 13bb 002a 523c ce25 263d 51bd 813c
00000020: a040 1d3d 54e4 833d 1e8d 3b3d f829 6f3d
00000030: 80e1 573d 1f1d 1a3c fad1 703d e0ce 213d
00000040: 27f7 d93c 5e86 e73b f718 9c3c e6b1 c5b9
00000050: 0e83 9f3c 93c0 9b3c 9ee0 1a3b d318 f73c
00000060: e99d ce3c c05d 303d 84b6 123d a14e e53c
00000070: 4ee5 293d fe4a 733d e77c d53b ef3e c43c
00000080: e8ce 843d fbea 843d 4905 a83c 658d 363d
00000090: 2a22 353d 71a0 063d 4589 0c3d f4dd 483d
000000a0: 5375 373d b204 f33c 976a 353d cc12 3e3d
000000b0: 42bd f33c 490e c63c 1704 b83b a65d cc3c
000000c0: 680b 9dbb e6d6 4dba 1b7d 573d 5954 c63c
000000d0: 22b3 283d 56b0 493d b65a 663d 76f6 3ebb
000000e0: 7f4f 7e3d 085c 293d d834 103b 14de 6a3d
000000f0: ad3a 4dbb 62a9 103c 0791 ab3c a46e 273d
00000100: e973 503d b6c0 f33c c6fc ac3c 7957 bcbb
00000110: 0c1b d1bb 7084 a6bc bd51 103d 4768 343d
00000120: c77d a5bc 7ae6 d53c 3355 043d a429 a43c
00000130: d703 4a3d 34a9 043b 9f51 c93c d666 293d
00000140: aea9 613d 246b 9a3c e8fb 233d 01da 863d
00000150: 6fcb 853b d266 673d eaac 5e3d ab70 863d
00000160: aa6b dc3b 075d 363c 8417 cdbb 1d2a 3dbc
00000170: b872 d13b 24e0 a3bb 4290 da3c 83c0 11bd
00000180: 7387 afbb 42a5 71bc e225 babb d9a7 edbc
00000190: 90e4 2abd f374 cabc df28 7bba 6292 793b
000001a0: 2ae4 ed3c 2bd4 aa3b ebb7 d33a 4b24 343c
000001b0: 43ed 273d a5f8 fe3b 252a bf3c 1b4e 813d
000001c0: 924c 453d 7124 4c3b e664 3f3d 9d28 59bb
000001d0: e5fc 043c 3caf 0f3c bf1a 293d 859e 423d
000001e0: 443c 993c b6ae 1a3d 46d5 07bc c01d 99bd
000001f0: 75c4 1cbd c2e0 7bbd d64c c9bd cae6 b1bd
00000200: 05ab 3abc 6445 ee3b 2ff8 8bbb 1793 d03c
00000210: ba8b 9b3d f675 453d b99b 9e3d 1dec c43d
00000220: 4a2f 1e3d 6826 2d3d 35ba fc3c de71 b23b
00000230: 3e69 6d3d 6d8a dc3b eec0 e03c 7df7 033d
00000240: 7adc 4a3d 22c0 b33b ecca 843d ba85 553c
00000250: 053a 5c3d d874 d5bc de56 58bc aac8 89bd
00000260: 69e4 f7bd 1a1d 28be 2de7 13be 7f74 e6bc
00000270: 9f66 d33d 9460 963d 83df 923d c05b 223b
00000280: 3b2a 0a3c 7a3f 083e ed85 143e 3a36 093e
00000290: f981 113d 2547 3dbc 0d1a 563d b862 0c3d
000002a0: cdf2 be3a d517 813b 425d 2b3d 0249 313d
000002b0: dc8c 263d ec56 fa3c 6d4f 5a3d 37b6 b93b
000002c0: 12fa 4f3c 733f 02bd 828a c0bd 713c 3fbe
000002d0: f2c5 1bbe f2ac 94be ac10 99be feef 65be
000002e0: 8f21 7e3d 77a9 543e d728 3b3e 1956 2d3c
000002f0: 2dc2 e6bb b1cf a43d abab 083e 17c4 a03d
00000300: 43eb fb3c 2320 d73c 3697 623d 9f15 c63c
00000310: ec93 593c 443d 05ba cdef 193d 8584 1abb
00000320: c2db a03d a222 093d e917 8b3c 0aa1 4f3c
00000330: 090b a2bd 6172 07be 93a4 18be 101e 5bbe
00000340: 2d0e 99be a606 d1be 8f58 a4be c86a 1abe
00000350: d8a8 903d 8f70 9c3e 61aa 633e 7aba 683d
00000360: 57d8 073c b1cc 553d 04bd 9e3d 78b3 1abd
00000370: 8030 70bd 7eba a1bc db3a 0c3b 1c13 b9bb
00000380: 2cb6 3b3d 0719 c4ba 03ed 6e3d 2ed2 963c
00000390: be77 633d 6d46 643c 62cf 5cbc b5d1 60bd
000003a0: 4ee7 84bd 5ac7 03be f073 68be f0d4 69be
000003b0: 53c8 c5be f503 cfbe 9945 96be 2cd4 d7bd
000003c0: 7f67 2a3e 1125 a43e 6989 5e3e c8ad f73d
000003d0: e7b4 11bd 366c 87bd e1c5 e3bd a85d 31be
000003e0: 0f02 10be 9457 40bd 9ba2 843b dba8 163c
000003f0: e861 303d bde3 423d c4b4 6a3c 4eb7 c73c
-0.0012902609 0.042212375 0.063968614 0.01819304 -0.002245544 0.012827396 0.040563397 0.015837343
0.03839171 0.064400345 0.045788877 0.058389634 0.052705288 0.009406357 0.058794 0.039503932
0.02660711 0.0070655784 0.019054873 -0.00037707313 0.019471671 0.019012725 0.0023632417 0.030163204
0.025221782 0.043058157 0.03581859 0.027991595 0.041478448 0.05939769 0.0065151337 0.02395579
0.06484777 0.064901315 0.020510333 0.044568438 0.044222035 0.032867853 0.034310598 0.049039796
0.044789623 0.029665325 0.044291105 0.046404645 0.029753331 0.024176734 0.005615722 0.024946999
-0.0047926195 -0.0007852152 0.052609544 0.024210142 0.04118646 0.049240433 0.056238852 -0.0029138601
0.062087532 0.041347533 0.0022004154 0.057340696 -0.003131549 0.0088294465 0.020943178 0.040877
0.05089179 0.029754978 0.021116626 -0.0057477322 -0.006381398 -0.020326823 0.0352342 0.04404476
-0.020201577 0.026110876 0.032307815 0.020039387 0.04932007 0.0020242454 0.024575053 0.041357838
0.05509346 0.018849917 0.04003516 0.0658455 0.004083089 0.05649454 0.054364122 0.065644585
0.0067267017 0.011130578 -0.006258907 -0.011545685 0.0063918494 -0.005001085 0.026680116 -0.035583984
-0.005356723 -0.014748873 -0.0056807855 -0.0290107 -0.04172188 -0.024713969 -0.00095809804 0.0038081636
0.029039461 0.0052132807 0.0016152834 0.010994981 0.040997755 0.0077811056 0.023335526 0.063137256
0.048168726 0.003114965 0.046727084 -0.003313578 0.008116935 0.0087698065 0.041285273 0.047514457
0.018705495 0.037764274 -0.008290594 -0.074763775 -0.038273294 -0.061493643 -0.098291084 -0.08686598
-0.011393313 0.0072714556 -0.004271529 0.025460763 0.0759501 0.0482082 0.077445455 0.096153475
0.038619317 0.042272955 0.03085051 0.005445703 0.057961695 0.006730369 0.027435746 0.032218445
0.04952667 0.0054855505 0.06484017 0.013032371 0.05376627 -0.026056692 -0.0132043045 -0.06727727
-0.12104113 -0.16417351 -0.14443655 -0.028131722 0.10322308 0.073426396 0.07171538 0.0024773926
0.00843292 0.13305464 0.14504214 0.13399592 0.035524342 -0.011552607 0.052270938 0.034273833
0.001456821 0.0039396086 0.041836984 0.043282516 0.040661678 0.030559026 0.053298403 0.0056674737
0.012693899 -0.03179879 -0.09401418 -0.186754 -0.15212229 -0.29038197 -0.29895532 -0.22454831
0.062043723 0.2076777 0.18277298 0.010579609 -0.0070421905 0.080474265 0.13346736 0.07849901
0.03075183 0.026260441 0.055319987 0.024180232 0.013279896 -0.00050826767 0.037582207 -0.0023577523
0.078544155 0.033480294 0.016979175 0.012672672 -0.07912261 -0.13227226 -0.1490653 -0.21398187
-0.29893628 -0.40825385 -0.32098815 -0.15079796 0.070634544 0.30554625 0.22232963 0.056818463
0.0082913255 0.052197162 0.077508956 -0.03776881 -0.058640003 -0.019742247 0.0021397385 -0.00564803
0.04582803 -0.0014961072 0.0583315 0.018410768 0.055534117 0.013932806 -0.013477178 -0.054887492
-0.0648943 -0.12869015 -0.22700477 -0.22835135 -0.38629398 -0.40432706 -0.29349974 -0.105385154
0.16641043 0.3205953 0.21732105 0.12093693 -0.035572913 -0.066124365 -0.11121727 -0.17320883
-0.14063285 -0.04695852 0.0040477044 0.009195532 0.04306212 0.04758047 0.014325324 0.024379399

fc1.bias f4 [128]
00000000: d789 d43a fa2c eebb 552f 883c 2356 4f3b
00000010: aa1d 8c3c b785 ebbb 4ae2 91bc a9dc 973c
00000020: 27c0 9e3c aba4 21bd 95c1 88bc e232 f5bb
00000030: c9d8 693c 392a 4a3c a2c2 943b f9b2 f5bc
00000040: 7399 5c3d 84b6 a23c a891 82bc 6262 21bc
00000050: ac92 0b3d fc18 4abc 5bb8 b83c b5e8 743a
00000060: f4f3 b63c 7451 333c a93a a13c bf5a c2bc
00000070: a9d0 e9ba cd7c 04bd fc43 a1bc 51de c43a
00000080: 6c02 edba 252d 2bbd c030 febc fa24 d0bc
00000090: 0a81 7f3c cd07 4c3d a38b 1dbc 3cf4 153d
000000a0: 1b3a d63c ca9d 09bd 619b 50bc 5ed4 c4bc
000000b0: 22ab 943c ec57 d8bc 6dfc 98bb 080e 0ebd
000000c0: 6aba 6c3b b6cc 15bd 1e74 053c bf82 bd3c
000000d0: b909 353d 9ec4 623c 7719 b73c 6c59 09bd
000000e0: 569f c8bc 330a 0e3d 0765 433a f300 56bd
000000f0: 84d5 0cbd 878b 73bc 8902 0fbd 3a08 a53b
00000100: 0c94 13bd b463 c33a a964 02ba a0aa 8abc
00000110: e449 fe3c f434 babc 4b78 e5bc 963d e1bc
00000120: bce7 ffbb ca38 3f3c 3b75 383c ef26 c8bc
00000130: c734 bc3c 5e68 4a3c 754a 8f3c 9fa2 98bc
00000140: e5ee 7c3d ee5b 0b3c 0431 6a3c 1e82 503c
00000150: 558d 293d 06cf ecbc 77c2 3abd 2b29 64ba
00000160: 754d 37bc 7111 bd3c 3beb 3239 6741 e33c
00000170: 6a31 59bc 7aff 8fbc 4d44 debc 83fc aabb
00000180: 0b4c 4dbc 8d58 b43b a2d3 0bbd 303a b83c
00000190: e415 fe3c d67b d5bb 470e c2bc a9d1 ccbc
000001a0: e3c6 5fbc 1908 0d3d ad65 0e3d 0f63 1ebc
000001b0: ec72 1c3c f392 e53c 3d8b 6ebc 6c32 1ebd
000001c0: 80d6 f33b 0560 083d 31ee a6bc 9e93 c3bc
000001d0: 0671 17bd b121 1b3d 417f febb ea7d 9d3c
000001e0: 615e 1f3c b684 7e3c 6557 eabc cb7b b6bc
000001f0: 28d9 08bd 6a17 8ebc 347c 243d 3c09 87bc
0.0016215396 -0.007268545 0.016624132 0.0031637035 0.017103989 -0.007187571 -0.017808098 0.018537836
0.019378735 -0.03946368 -0.01669387 -0.0074828723 0.014272877 0.012339168 0.0045398036 -0.029992567
0.053857278 0.01986242 -0.015938595 -0.009850116 0.034075424 -0.012335058 0.022548845 0.00093425374
0.022333123 0.010944713 0.019681292 -0.023724912 -0.0017838675 -0.03234558 -0.019685738 0.0015019869
-0.0018082387 -0.0417911 -0.031029105 -0.025408257 0.01559473 0.049812127 -0.0096158115 0.036609873
0.026150754 -0.033597745 -0.012732358 -0.024027046 0.018148009 -0.026409112 -0.0046687634 -0.03468135
0.0036121854 -0.03657218 0.00814536 0.023133634 0.044198725 0.0138408225 0.02235101 -0.033532545
-0.02449004 0.034677695 0.0007453714 -0.052247 -0.034383312 -0.014864809 -0.034914527 0.005036381
-0.03602986 0.0014907033 -0.0004974106 -0.016927063 0.031041093 -0.022730328 -0.028011462 -0.027495187
-0.0078096073 0.011671254 0.011258419 -0.024432627 0.022974385 0.012353985 0.017491559 -0.018632231
0.061751265 0.008505804 0.014293913 0.012726335 0.04139455 -0.02890731 -0.045595612 -0.0008703644
-0.011187901 0.023079606 0.00017063033 0.027741147 -0.01325641 -0.017577875 -0.027132178 -0.00521809
-0.012530337 0.00550372 -0.034137376 0.022488683 0.031016298 -0.0065150065 -0.023688449 -0.025002318
-0.013658258 0.03443155 0.034764934 -0.009667172 0.009548884 0.028024172 -0.014559564 -0.038622305
0.007441342 0.033294696 -0.02037725 -0.0238741 -0.036973022 0.037873928 -0.0077666347 0.01922508
0.0097270915 0.01553457 -0.028606126 -0.022275826 -0.03341022 -0.01734515 0.04015751 -0.016483895

fc2.weight f4 [10, 128]
00000000: b8ef dabd 992c 5d3d 9358 93be 42d1 ddbc
00000010: e9a1 abbe dab2 493d 87d9 ffbc 7141 56be
00000020: fa5e bebd 8df5 24bd add0 babd 9b06 793d
00000030: 5538 2c3e 9b08 203e e3ce 83bd 2576 d6bd
00000040: cd9c 073e 88ce 673d c373 03bc d1f0 753d
00000050: 318e 4e3e aef8 d53c f0e5 613e 0694 003d
00000060: 8147 743d c7f9 813d 043d 0b3e 66eb 43bd
00000070: 09c2 b33c 9602 873c 470f 93bd d76a 14be
00000080: 3768 babe edf7 883c dda3 7e3d f4a7 19bc
00000090: 6c5e 5e3e 6f4c 3b3e 1b5b 7a3d 136c e53d
000000a0: 8a27 2a3e 41af 7dbd f7db b3bd 180d 833d
000000b0: 7cd9 abbd 2bd7 cdbc 838c acbd 610f 5b3d
000000c0: 9ca5 2bba a557 623c fc0f 2bbe 740f 08bc
000000d0: 06a9 9ebe c5e6 57bc ea2c 1f3d f9f3 353d
000000e0: ef38 93bd 3ff3 28be b148 b83d 85ca b2bd
000000f0: dbc1 063d c715 a5be b2f5 8ebe 73be 563e
00000100: 2088 dc3b 609a d6bc 5b77 2b3d bd8c 39bd
00000110: 75cb 96bd 3150 0f3e 7fb0 a53d 7aaf c33d
00000120: fa97 d13d 656f 903d c883 1bbc 1086 07be
00000130: 200c f9bc f565 9f3d cb9c 803d 78a2 11bd
00000140: 1e3d 023e af51 c1be 1259 093d 9032 f3bd
00000150: 5418 653d 2f32 843d b132 9c3d 2935 9bbe
00000160: 62b1 7abd 1a57 a9be 4bf0 813d e128 8fbe
00000170: 13ed 17bd 8f4a debe 02b4 0b3d 3705 bbbe
00000180: 33af 8fbd 539e 03be d352 bfbd 7314 b1bc
00000190: 0701 dcbb 23de 6bbc aa3b 51be 6ff9 013d
000001a0: 2957 213e e99d 493e fcd3 963d 6f8b ba3d
000001b0: 0bd3 dd3c 11be e6bc cb16 66be a6a3 62be
000001c0: ba4e 583c 6403 423e 0d4c b23c f6cb 3abd
000001d0: 9e3d fa3c aee5 613e ab13 b73d 979d 93bd
000001e0: 640d 6abe 5ace f4bd 825e ff3d 6011 89be
000001f0: d0af 943d 7e3c 253d 1945 c03d c69e 6abd
00000200: 2fc2 693e 1691 493d 44a7 513d 223e e5bc
00000210: 9cb2 36be 01f6 9f3d 5e92 18bd 8a9a 68be
00000220: dfba 24be 8332 9c3d 212b e53d 883e 953d
00000230: 9a4c 853e b5c8 773d 219a f9bc a72c c53d
00000240: d505 55be 6392 853d 6b6c b3bc 3494 9fbd
00000250: 722b 3abe c2aa 90bc 6677 48be 6a23 18bd
00000260: 68ef 4c3d 9599 aebd 8de0 2f3d d591 46bc
00000270: 401d f3bd f7de f8bc 0a52 d23c d1c7 b13d
00000280: 99a4 2ebe cf5f 503d 39a9 a9bd 6001 a53c
00000290: ff7f ae3d 9504 b2be 795a 7cbd 9f03 673d
000002a0: b7ad e9bc fe9a 553d 1c9d 4dbd 9dc5 50be
000002b0: 18e1 cabb 70b3 27bd 377b bdbd 358c fa3c
000002c0: a44a e93a 6cc5 1b3c 142c d4bb 123e 543d
000002d0: 080e a13d 3d21 79bd 4721 a93d 33e1 2bbd
000002e0: 7257 073e bf04 6cbe 09d5 433d c278 0c3e
000002f0: 473c ddbd 39e0 cf3d 8bfa 4f3d 4751 a8be
00000300: 218e dfbc 65ae 17be 33a0 073d 5b04 0ebd
00000310: ef3e 7d3c 6868 64bd 9e39 aebd 880d 1abe
00000320: e691 cdbd cca8 9bbd 2641 083d 1c34 163e
00000330: 9739 e5bc 214c 823b 7ce7 803d f85e 903d
00000340: 08d8 28be db92 993d d92d cd3d 6801 e1ba
00000350: 553a 81bd 1624 263c c269 433e c3a0 96be
00000360: 4547 5bbc 5908 d13d fa46 80bc c468 993b
00000370: a7b2 a63c d602 153d f20e 763c 9d8f 5abe
00000380: 5a44 78be 91cc 25be 5038 173e f88d 8c3d
00000390: 6896 933d ced9 48be 5f8a 8cbd e8c0 703d
000003a0: 331f 99bd f6c6 0b3a 57fe adbe d38d f83d
000003b0: 0e17 f9bd 476c 913c 2f1e 163e 5dcd 0dbe
000003c0: f37d 7fbe 3e88 8abd ab35 0bbc 42bb 16bd
000003d0: 7905 843b 0596 b0be 26b7 a63d 4f2e 0a3d
000003e0: 8b39 5e3d 537b 123d 946b 0fbe aa81 7a3e
000003f0: ad23 69bd 316a 95be b7e7 4dbe 0e9e 913b
-0.10690254 0.05399761 -0.28778514 -0.027077321 -0.33521965 0.04924283 -0.031231655 -0.20923401
-0.09295459 -0.040273238 -0.09121833 0.060797315 0.16818364 0.15628283 -0.06435945 -0.10471753
0.13243409 0.056593448 -0.008023205 0.060044114 0.20171429 0.026119556 0.2206037 0.031391166
0.059638504 0.06346469 0.13597494 -0.047831915 0.02194311 0.016480725 -0.07180648 -0.14493881
-0.36407635 0.016719783 0.06216799 -0.009378422 0.21715707 0.18290876 0.06112204 0.11202254
0.16616645 -0.061934713 -0.08782189 0.06398982 -0.08391091 -0.025127014 -0.08425238 0.053481463
-0.000654781 0.013814841 -0.16705316 -0.008304466 -0.3098833 -0.013177578 0.038861193 0.044422124
-0.071885936 -0.16499041 0.0899824 -0.08730034 0.03289972 -0.32243177 -0.27921826 0.20971088
0.0067300946 -0.026196659 0.041861873 -0.045300234 -0.07363025 0.13995434 0.080903046 0.09554954
0.10234065 0.07052497 -0.009491868 -0.13234735 -0.03040129 0.07783119 0.06279906 -0.035555333
0.12718627 -0.37757632 0.03353221 -0.118748784 0.055931404 0.06454884 0.07626856 -0.30313995
-0.06120432 -0.33074266 0.0634466 -0.27960876 -0.037091326 -0.4341626 0.034107216 -0.36527416
-0.070158385 -0.12853365 -0.09341969 -0.021616196 -0.0067139897 -0.014396223 -0.20432916 0.03173202
0.15755905 0.19689144 0.073646516 0.09108626 0.027078172 -0.028166803 -0.22469632 -0.2213274
0.013202364 0.18946606 0.02176478 -0.04560467 0.03054696 0.22060272 0.08939298 -0.07207792
-0.2285667 -0.11953421 0.12469198 -0.2677107 0.07260096 0.040340893 0.09388179 -0.057280324
0.22827981 0.04921063 0.051184908 -0.027983729 -0.17841572 0.078105934 -0.03724896 -0.22715202
-0.1608691 0.07626822 0.11189867 0.072873175 0.26035005 0.060494144 -0.030469002 0.096276574
-0.20803006 0.06522062 -0.021902284 -0.077919394 -0.18180636 -0.017659549 -0.19576797 -0.03714315
0.050033003 -0.08525387 0.042938758 -0.01211973 -0.11870813 -0.030379755 0.025673885 0.0868069
-0.17054977 0.05087262 -0.0828423 0.020142257 0.08520507 -0.3476912 -0.06160972 0.056399938
-0.028525217 0.052149765 -0.05019866 -0.20387883 -0.006191384 -0.04094261 -0.09252017 0.030584434
0.0017798734 0.009507518 -0.006474981 0.051817007 0.078640044 -0.060822714 0.082583 -0.041962814
0.13216951 -0.23048685 0.047810588 0.1371794 -0.108025126 0.10150189 0.050776046 -0.3287451
-0.027289452 -0.1481262 0.033111762 -0.034672122 0.015456899 -0.055763632 -0.08507083 -0.15044224
-0.100375935 -0.07600555 0.033265255 0.14668316 -0.027981563 0.0039763604 0.06294152 0.07049364
-0.1648866 0.074987136 0.1001851 -0.0017166557 -0.06309954 0.0101404395 0.19083312 -0.29419526
-0.013383691 0.1020667 -0.015658844 0.0046816785 0.02034886 0.036379658 0.015018212 -0.21343847
-0.24244824 -0.16191317 0.14767575 0.06863016 0.07206422 -0.19614336 -0.0686233 0.05877772
-0.07476654 0.00053320767 -0.33983108 0.12136426 -0.121626005 0.017751826 0.14659952 -0.13847871
-0.2495039 -0.067642674 -0.008496682 -0.036799677 0.0040289727 -0.34489456 0.081404015 0.03373557
0.054254096 0.035762142 -0.14005882 0.24463525 -0.05691879 -0.2918258 -0.20107923 0.0044438904

fc2.bias f4 [10]
00000000: c6a6 5fbd d386 b9bb 224b 4cbd 19a9 9b3d
00000010: 6054 933d 69da 2dbb 33d5 ab3d ce94 183d
00000020: 0b7d e93c 0887 643a
-0.054602407 -0.0056618243 -0.04987634 0.07600612 0.07193828 -0.0026527888 0.08390274 0.037251286
0.028502008 0.0008717631
